Model: "sequential"
_________________________________________________________________
Layer (type)                 Output Shape              Param #
=================================================================
conv2d (Conv2D)              (None, 30, 30, 6)         168
_________________________________________________________________
batch_normalization (BatchNo (None, 30, 30, 6)         24
_________________________________________________________________
max_pooling2d (MaxPooling2D) (None, 15, 15, 6)         0
_________________________________________________________________
conv2d_1 (Conv2D)            (None, 9, 9, 12)          3540
_________________________________________________________________
max_pooling2d_1 (MaxPooling2 (None, 3, 3, 12)          0
_________________________________________________________________
flatten (Flatten)            (None, 108)               0
_________________________________________________________________
dense (Dense)                (None, 10)                1090
=================================================================
Total params: 4,822
Trainable params: 4,810
Non-trainable params: 12
_________________________________________________________________

2021-02-22 23:49:44.621780: I tensorflow/compiler/mlir/mlir_graph_optimization_pass.cc:116] None of the MLIR optimization passes are enabled (registered 2)
Epoch 1/15
12500/12500 [==============================] - 48s 4ms/step - loss: 0.0917 - accuracy: 0.1851 - val_loss: 0.0829 - val_accuracy: 0.3084
…
