Model: "sequential"
_________________________________________________________________
Layer (type)                 Output Shape              Param #
=================================================================
conv2d (Conv2D)              (None, 30, 30, 6)         168
_________________________________________________________________
max_pooling2d (MaxPooling2D) (None, 15, 15, 6)         0
_________________________________________________________________
conv2d_1 (Conv2D)            (None, 9, 9, 12)          3540
_________________________________________________________________
max_pooling2d_1 (MaxPooling2 (None, 3, 3, 12)          0
_________________________________________________________________
flatten (Flatten)            (None, 108)               0
_________________________________________________________________
dense (Dense)                (None, 10)                1090
=================================================================
Total params: 4,798
Trainable params: 4,798
Non-trainable params: 0
_________________________________________________________________

2021-02-22 21:30:06.123943: I tensorflow/compiler/mlir/mlir_graph_optimization_pass.cc:116] None of the MLIR optimization passes are enabled (registered 2)
Epoch 1/15
12500/12500 [==============================] - 29s 2ms/step - loss: 0.0893 - accuracy: 0.1576 - val_loss: 0.0840 - val_accuracy: 0.2841
…
